AndroidCode/HealthApp/app/src/main/assets/model/health_model.tflite (tflite, 239068 bytes, 8 tensors)

conv2d_1/Conv2D_bias f4 [32]
0.0 0.0 0.0 0.0 0.0 -0.28361103 -0.04767704 -0.39318198
0.0 0.0 0.0 0.0 0.0 0.0 -0.29474226 0.0
0.0 0.0 -0.036712117 -0.00038674235 -0.0014184136 0.0 0.0 0.0
0.0 -0.39968413 -0.074457645 0.0 0.0 -0.0063813776 0.0 0.0
00000000: 0000 0000 0000 0000 0000 0000 0000 0000
00000010: 0000 0000 7735 91be 0049 43bd 264f c9be
00000020: 0000 0000 0000 0000 0000 0000 0000 0000
00000030: 0000 0000 0000 0000 75e8 96be 0000 0000
00000040: 0000 0000 0000 0000 725f 16bd aec3 cab9
00000050: 10ea b9ba 0000 0000 0000 0000 0000 0000
00000060: 0000 0000 66a3 ccbe 407d 98bd 0000 0000
00000070: 0000 0000 e01a d1bb 0000 0000 0000 0000

conv2d_1/kernel f4 [1, 1, 1, 32]
-0.18128423 -0.08460587 -0.05037892 -0.059424818 -0.3547964 0.32423177 0.00016089319 0.44889936
-0.068654805 -0.21029441 -0.41156244 -0.26047498 -0.18661489 -0.10596934 0.33486396 -0.3451696
-0.02493617 -0.38160142 0.00012327544 0.9898899 0.72479725 -0.33333075 -0.16758761 -0.35246998
-0.39304247 0.45939904 0.14723517 -0.14389822 -0.0010798573 2.317792e-05 -0.28112873 -0.116297394
00000000: 93a2 39be d845 adbd 205a 4ebd 7067 73bd
00000010: e0a7 b5be b501 a63e 70b5 2839 23d6 e53e
00000020: e49a 8cbd 6b57 57be 50b8 d2be fa5c 85be
00000030: f917 3fbe 7406 d9bd 4a73 ab3e 12ba b0be
00000040: f046 ccbc 4361 c3be 8043 0139 6d69 7d3f
00000050: 508c 393f 54aa aabe 169c 2bbe f276 b4be
00000060: dd3c c9be 5a36 eb3e d1c4 163e 0e5a 13be
00000070: 008a 8dba 346e c237 1bf0 8fbe 542d eebd

conv2d_2/Conv2D_bias f4 [32]
-0.07978572 0.54067826 0.23747648 -0.01788084 -0.008181953 -0.0386063 -0.0057080085 -0.011474318
-0.019030008 -0.0051460303 -0.004674304 -0.14079034 -0.019164266 -0.00535633 -0.03925341 -0.019114247
0.36571258 0.37203687 -0.017468538 -0.06796342 -0.0053775306 -0.08891896 0.3502609 -0.043400053
-0.01578978 -0.0051445956 -0.013215991 -0.0071882424 -0.0664164 0.3743652 0.3612141 -0.05789983
00000000: b266 a3bd e469 0a3f 092d 733e d77a 92bc
00000010: 990d 06bc a421 1ebd 3f0a bbbb c7fe 3bbc
00000020: d2e4 9bbc 08a0 a8bb e72a 99bb 582b 10be
00000030: 61fe 9cbc 2784 afbb 2fc8 20bd 7b95 9cbc
00000040: ae3e bb3e 9e7b be3e 2e1a 8fbc 6830 8bbd
00000050: ff35 b0bb 251b b6bd 6655 b33e 41c4 31bd
00000060: 9259 81bc ff93 a8bb e287 58bc 598b ebbb
00000070: 5205 88bd ccac bf3e 0ef1 b83e 5f28 6dbd

conv2d_2/kernel f4 [32, 1, 1, 32]
-0.024327636 0.11849418 0.15933219 -0.20190036 -0.08687678 -0.16232614 0.22908509 0.00018818934
0.07213834 -0.21689516 -0.06496839 0.10478386 0.14014399 -0.23918858 -0.27633843 -0.19551735
-0.11946441 0.021825403 -0.14837277 -0.08968719 0.19368143 -0.13845097 -0.07772376 -0.27489626
-0.058114663 0.11596333 -0.3288965 -0.15444136 0.063993186 -0.19038522 -0.19135997 -0.17381817
0.102906734 -0.25045395 -0.25898367 -0.116449565 -0.23108983 -1.7390231 -0.19942056 -2.5384862
0.21391955 -0.08758657 0.18880898 0.26133254 -0.10978252 -0.054807514 -1.7469724 -0.18607509
0.20775399 0.20300564 -0.10904526 -0.19710605 0.041301608 0.29102328 0.08266932 -0.245852
0.2685273 -2.30939 -0.11853885 -0.30251554 0.09131083 0.011160535 -0.2928949 0.17962742
0.1274192 0.0825783 0.09383133 -0.23981717 -0.0361062 -1.5922545 -0.40485856 -2.048134
-0.21854433 0.06635985 -0.006245345 -0.3003938 -0.04166153 -0.17376532 -1.7643198 -0.058932707
-0.13403122 0.2864733 -0.07726052 0.40816885 -0.08875681 -0.19694406 0.1044215 -0.078156516
0.28849718 -1.8991983 0.05736256 0.24960282 0.07318592 0.19919036 0.1447869 0.013416469
0.062640905 -0.08098689 0.20343438 0.15044525 -0.14220232 -0.10288407 -0.037028484 -0.08244786
-0.025082827 -0.061890393 -0.25751197 0.23187986 0.22025707 0.024537593 -0.08536203 -0.15684804
-0.055051416 0.2921867 0.22409435 -0.07928273 -0.031981263 -0.17043087 -0.1535706 -0.07987495
0.2587292 0.037758004 -0.0867521 -0.13194604 -0.034024656 0.12825847 -0.018588394 0.12102839
0.018214196 0.13298687 0.20401517 -0.08320683 -0.23287782 -0.21136765 0.03778681 -0.058433756
0.18280008 -0.2850039 -0.030864447 -0.016829312 -0.13161813 0.12082142 0.042001188 -0.22816405
-0.049010128 0.15141016 0.07027941 0.07752529 -0.1342293 0.109422535 0.17434749 -0.09301022
0.16375959 -0.038864136 -0.096868366 0.07240808 -0.21882275 -0.23775448 0.18691298 0.016538262
0.09092933 -0.18561235 -0.032598794 0.047300458 0.3013989 0.25876424 -0.07155506 -0.2438429
-0.15449509 0.16699848 -0.15389743 0.29605237 -0.2372088 0.2928181 -0.13275175 -0.09674594
0.032370597 0.12787136 0.0876875 0.18391319 -0.26415467 0.11945894 -0.19299701 0.08554709
-0.09618749 0.10518339 0.048618235 0.16608179 -0.054433912 -0.14827292 0.08754319 6.940961e-05
-0.22075215 0.035265505 -0.059955597 0.12512028 -0.26284942 0.08116472 0.14578861 -0.12749097
-0.13250107 0.16464478 0.24523655 -0.04448226 -0.2815969 -0.08551481 -0.20124073 0.109950185
-0.2576222 0.22365442 -0.046991438 -0.14329141 0.046778947 -0.07839705 0.113767326 -0.018486947
-0.23124276 -0.057326987 -0.21986629 0.059023082 0.08687356 0.13430783 -0.13439542 -0.071885616
0.2528256 -0.13161644 0.2821351 -0.03479874 -0.029176384 -0.17462997 0.23231688 0.025923144
-0.10207622 0.23519263 -0.03325069 0.2591903 0.06836751 -0.23832658 0.09124157 0.118065804
-0.29656535 -0.07554412 0.176311 -0.21223348 -0.0007029365 -0.18315734 0.001740247 -0.2888064
-0.08499563 0.062562905 -0.14546978 0.19253841 0.042306125 0.07862994 -0.20211959 -0.21283254
00000000: c04a c7bc 14ad f23d fa27 233e f8be 4ebe
00000010: 74ec b1bd d338 26be 4895 6a3e b154 4539
00000020: 44bd 933d c419 5ebe 260e 85bd ec98 d63d
00000030: e881 0f3e daed 74be 3b7c 8dbe b335 48be
00000040: c2a9 f4bd 30cb b23c 08ef 17be ebad b7bd
00000050: 6d54 463e 17c6 0dbe a22d 9fbd 34bf 8cbe
00000060: a409 6ebd 2f7e ed3d 1f65 a8be e025 1ebe
00000070: dc0e 833d 58f4 42be def3 43be 64fd 31be
00000080: c4c0 d23d 803b 80be 8299 84be 1c7d eebd
00000090: d0a2 6cbe 4f98 debf e734 4cbe 8f76 22c0
000000a0: ba0d 5b3e 9660 b3bd 2457 413e 61cd 853e
000000b0: a8d5 e0bd d87d 60bd cb9c dfbf 788a 3ebe
000000c0: 76bd 543e b6e0 4f3e 1f53 dfbd 2bd6 49be
000000d0: e02b 293d 0101 953e 884e a93d a0c0 7bbe
000000e0: 697c 893e 0ccd 13c0 7fc4 f2bd 51e3 9abe
000000f0: 2c01 bb3d adda 363c 52f6 95be 40f0 373e
00000100: 2e7a 023e d01e a93d a42a c03d a292 75be
00000110: 18e4 13bd ffce cbbf 9f49 cfbe a114 03c0
00000120: 16ca 5fbe ace7 873d c0a5 ccbb 37cd 99be
00000130: 48a5 2abd 89ef 31be 3bd5 e1bf 6c63 71bd
00000140: 7b3f 09be a1ac 923e c33a 9ebd 82fb d03e
00000150: 21c6 b5bd b4ab 49be f0da d53d 8610 a0bd
00000160: e7b5 933e ee18 f3bf 01f5 6a3d e297 7f3e
00000170: 80e2 953d 8ff8 4b3e 0443 143e c0d0 5b3c
00000180: e049 803d 74dc a5bd 1a51 503e 520e 1a3e
00000190: 7c9d 11be e2b4 d2bd 2eab 17bd 6cda a8bd
000001a0: 807a cdbc c880 7dbd 9cd8 83be ea71 6d3e
000001b0: 128b 613e 1003 c93c 4ad2 aebd c69c 20be
000001c0: 987d 61bd 7f99 953e fd78 653e fc5e a2bd
000001d0: c9fe 02bd 6e85 2ebe 9d41 1dbe 7a95 a3bd
000001e0: 2778 843e 23a8 1a3d 16ab b1bd dd1c 07be
000001f0: 705d 0bbd 3056 033e b046 98bc bcdd f73d
00000200: f035 953c b62d 083e 5ae9 503e 5868 aabd
00000210: 8677 6ebe c370 58be 58c6 1a3d 3c58 6fbd
00000220: f22f 3b3e 08ec 91be 70d7 fcbc a0dd 89bc
00000230: e7c6 06be 3871 f73d 7009 2c3d d6a3 69be
00000240: d8be 48bd 440b 1b3e a7ee 8f3d 94c5 9e3d
00000250: 6873 09be ec18 e03d 2688 323e 247c bebd
00000260: 98b0 273e 0030 1fbd ec62 c6bd b04a 943d
00000270: 1213 60be e975 73be 1e66 3f3e 407b 873c
00000280: 2839 ba3d 2a11 3ebe 5086 05bd 20be 413d
00000290: f550 9a3e bf7c 843e 768b 92bd f4b1 79be
000002a0: f633 1ebe a601 2b3e 4a97 1dbe 2d94 973e
000002b0: dde6 72be 41ec 953e 13f0 07be bc22 c6bd
000002c0: 0897 043d b6f0 023e 8195 b33d bd53 3c3e
000002d0: 483f 87be e4a6 f43d 02a1 45be 5033 af3d
000002e0: f2fd c4bd 646a d73d ea23 473d 5811 2a3e
000002f0: 18f6 5ebd dbd4 17be d849 b33d 0090 9138
00000300: da0c 62be 9072 103d 0094 75bd 881f 003e
00000310: 3394 86be b039 a63d 9c49 153e fe8c 02be
00000320: 5cae 07be a498 283e 4a1f 7b3e 0833 36bd
00000330: 782d 90be 6422 afbd 0d12 4ebe 902d e13d
00000340: 0fe7 83be aa05 653e 187a 40bd fcba 12be
00000350: 489b 3f3d a28e a0bd d8fe e83d f071 97bc
00000360: e7ca 6cbe b4cf 6abd a124 61be 30c2 713d
00000370: c4ea b13d fe87 093e f49e 09be c438 93bd
00000380: 5b72 813e 76c6 06be 0374 903e 2089 0ebd
00000390: 5003 efbc 33d2 32be 7ae4 6d3e c65c d43c
000003a0: 560d d1bd 56d6 703e e031 08bd 97b4 843e
000003b0: 4404 8c3d e20b 74be dcdc ba3d 7ccc f13d
000003c0: 6ad7 97be e0b6 9abd df8a 343e bc53 59be
000003d0: 4545 38ba 998d 3bbe 0019 e43a 6fde 93be
000003e0: 3012 aebd fb20 803d 08f6 14be ca28 453e
000003f0: 3049 2d3d bc08 a13d 70f8 4ebe c6f0 59be

dense_1/MatMul_bias f4 [256]
-0.024535382 0.0923452 -0.115547806 -0.110387415 -0.083997436 -0.05934906 -0.08238784 0.19911008
-0.056764685 -0.04149495 -0.020308403 -0.076690026 0.21986042 0.023717826 0.053188283 -0.15495683
-0.2788295 0.16431008 0.016885752 -0.12372647 0.23375466 -0.011867276 -0.031430434 0.30141512
-0.08333748 -0.10741872 0.13727593 -0.13779664 -0.03161962 -0.015269926 0.31910178 0.0
-0.023020968 0.06407854 -0.04530506 -0.086740516 -0.011838909 -0.036341734 -0.05370158 0.4437298
-0.04620208 -0.08376891 -0.06628993 0.21389794 -0.10512932 -0.06258386 -0.09749541 0.07633278
0.17297073 -0.04089068 -0.039938074 -0.14532459 -0.023160808 -0.058792904 0.22266597 -0.019312479
-0.08557317 -0.0789323 -0.10784912 -0.0028851177 -0.12750506 -0.008601479 -0.06689044 -0.1680925
-0.042829324 -0.06885926 0.0397697 -0.022983251 -0.058931697 -0.3443635 -0.07730027 -0.05913719
-0.16076021 -0.018900448 -0.16943182 -0.02994793 0.0395449 -0.06396337 -0.04336933 -0.101468965
-0.039314833 0.15669727 0.14471121 -0.015010471 -0.077345036 -0.031506564 -0.09255229 -0.0019844256
-0.036829494 0.04855336 0.07273944 0.118694015 -0.007248173 -0.07524836 -0.036318798 -0.08454483
0.014004746 -0.02445924 -0.07635829 -0.01811384 0.03173746 -0.030757077 -0.04440911 0.12577412
0.274022 -0.06106381 -0.03782449 -0.024700724 -0.064205945 -0.03773062 -0.0853261 -0.07624778
-0.0138271395 -0.04500137 -0.11325276 -0.004134738 0.085429296 -0.025432788 0.08281406 -0.077980705
0.17162627 0.17192984 -0.07133816 -0.037366442 -0.021229137 0.047492556 0.431029 0.13015598
0.28625506 -0.023384832 -0.045183808 -0.056025866 -0.06207888 0.23159018 -0.042638715 -0.05212227
-0.034346994 0.2266949 0.34442788 -0.058398027 -0.08262559 -0.07917487 -0.03523381 -0.107694685
-0.015987998 -0.011720246 -0.0340633 -0.045373727 -0.08116727 0.11597738 -0.08199053 -0.07478232
0.076927304 -0.06762035 0.25459203 0.0213487 -0.1338915 0.2350485 -0.0040944763 -0.02867308
-0.037484527 0.0 -0.020059103 0.11815186 -0.008021133 -0.12760037 -0.05332218 -0.032303926
-0.0799997 -0.008378143 -0.043033093 -0.026856301 0.0453502 -0.068990275 -0.031650614 -0.04923014
-0.024346841 -0.06956805 -0.10859986 -0.05576483 -0.019494316 -0.035548266 -0.03147027 -0.0991367
-0.050379574 0.029295763 -0.018783126 0.03454099 -0.10516461 -0.030811468 -0.066449605 -0.015159521
-0.037208892 0.039333858 -0.15533607 0.109677345 -0.009125068 -0.018526034 -0.047156673 -0.04965131
-0.06975087 -0.040696934 -0.07505198 -0.06913692 -0.014977957 -0.02187171 -0.040867195 -0.07847911
0.014332734 -0.033916537 -0.070211805 -0.05232042 -0.17044388 -0.04339858 0.19639197 -0.02073335
-0.012329598 -0.030595755 -0.011558305 -0.1253927 0.27136824 -0.006138259 -0.04410942 0.012772227
-0.02073907 -0.024429234 -0.047546394 -0.04171334 -0.019001717 0.03045826 0.014484053 0.016680824
0.084594786 -0.010931723 0.015406832 0.015683712 0.22051778 -0.20372085 0.013203325 -0.025095565
-0.07761536 -0.2597407 -0.061103564 0.046801858 -0.09870272 -0.04425295 -0.15082194 -0.06367068
-0.04165152 -0.036836218 0.27778256 -0.028627796 -0.042939443 -0.018744558 -0.08127176 -0.025543593
00000000: 6dfe c8bc 7b1f bd3d 54a4 ecbd cc12 e2bd
00000010: d906 acbd 0018 73bd f5ba a8bd 83e3 4b3e
00000020: 1682 68bd 9cf6 29bd cf5d a6bc a90f 9dbd
00000030: 1723 613e e34b c23c f5db 593d 01ad 1ebe
00000040: bdc2 8ebe e740 283e fd53 8a3c 4e64 fdbd
00000050: 625d 6f3e f76e 42bc 33bd 00bd 1553 9a3e
00000060: d7ac aabd 59fe dbbd 1092 0c3e 901a 0dbe
00000070: 9383 01bd b62e 7abc 4f61 a33e 0000 0000
00000080: 7896 bcbc 9c3b 833d cc91 39bd 03a5 b1bd
00000090: fcf7 41bc 12db 14bd 30f6 5bbd 8d30 e33e
000000a0: 643e 3dbd 098f abbd 04c3 87bd 1008 5b3e
000000b0: 0a4e d7bd f72b 80bd acab c7bd 5c54 9c3d
000000c0: 3d1f 313e fc7c 27bd 1b96 23bd f8cf 14be
000000d0: bcbb bdbc d4d0 70bd 8c02 643e 3435 9ebc
000000e0: fc40 afbd 42a7 a1bd 00e0 dcbd 3e14 3dbb
000000f0: b090 02be 38ed 0cbc dbfd 88bd 7120 2cbe
00000100: cd6d 2fbd 1506 8dbd 8ee5 223d 5f47 bcbc
00000110: 5d62 71bd 6a50 b0be 9b4f 9ebd d739 72bd
00000120: 539e 24be 1dd5 9abc 897f 2dbe 5c55 f5bc
00000130: d5f9 213d 3aff 82bd 0aa4 31bd f6ce cfbd
00000140: 9708 21bd 4075 203e 2d2f 143e 7bee 75bc
00000150: 1367 9ebd 070d 01bd 0e8c bdbd 230d 02bb
00000160: 86da 16bd e3df 463d 6af8 943d d915 f33d
00000170: 1582 edbb d01b 9abd 05c3 14bd d725 adbd
00000180: 2a74 653c be5e c8bc bc61 9cbd 7a63 94bc
00000190: 24ff 013d 44f6 fbbc 54e6 35bd eeca 003e
000001a0: 9d4c 8c3e 0c1e 7abd daed 1abd 2c59 cabc
000001b0: 687e 83bd 6c8b 1abd 73bf aebd cc27 9cbd
000001c0: 3a8b 62bc 5b53 38bd 10f1 e7bd b27c 87bb
000001d0: 8ef5 ae3d 6c58 d0bc 6b9a a93d 59b4 9fbd
000001e0: ccbe 2f3e 600e 303e be19 92bd 8e0d 19bd
000001f0: bae8 adbc 8e87 423d d5af dc3e 9c47 053e
00000200: 0690 923e 8c91 bfbc a812 39bd 617b 65bd
00000210: 6c46 7ebd fa25 6d3e efa5 2ebd 297e 55bd
00000220: 6faf 0cbd b522 683e da58 b03e c532 6fbd
00000230: 9b37 a9bd 6f26 a2bd 5451 10bd 088f dcbd
00000240: 43f9 82bc 4606 40bc f585 0bbd cdd9 39bd
00000250: 073b a6bd 8c85 ed3d a7ea a7bd 7927 99bd
00000260: 108c 9d3d 8a7c 8abd e359 823e 78e3 ae3c
00000270: da1a 09be 8eb0 703e f52a 86bb cfe3 eabc
00000280: 6089 19bd 0000 0000 fd52 a4bc 9af9 f13d
00000290: 126b 03bc aca9 02be 5c68 5abd 1f51 04bd
000002a0: e2d6 a3bd 7b44 09bc 7843 30bd bf01 dcbc
000002b0: 22c1 393d c64a 8dbd 13a4 01bd 8ba5 49bd
000002c0: 0773 c7bc b279 8ebd 9a69 debd aa69 64bd
000002d0: 8bb2 9fbc 0f9b 11bd f8e6 00bd 2f08 cbbd
000002e0: d05a 4ebd abfd ef3c 12df 99bc da7a 0d3d
000002f0: 8b60 d7bd 5568 fcbc bb16 88bd a45f 78bc
00000300: 5a68 18bd 8a1c 213d 6b10 1fbe 849e e03d
00000310: 4f81 15bc e9c3 97bc 5b27 41bd 2c5f 4bbd
00000320: 8bd9 8ebd d4b1 26bd dab4 99bd a897 8dbd
00000330: 1b66 75bc 4d2c b3bc 5c64 27bd a8b9 a0bd
00000340: d8d3 6a3c 11ec 0abd 35cb 8fbd f04d 56bd
00000350: d788 2ebe b6c2 31bd fa1a 493e fdd8 a9bc
00000360: 1502 4abc f3a3 fabc 0b5f 3dbc f266 00be
00000370: c7f0 8a3e 7323 c9bb 14ac 34bd 9a42 513c
00000380: fbe4 a9bc d11f c8bc 02c0 42bd 9bdb 2abd
00000390: 7da9 9bbc 9a83 f93c 854e 6d3c 39a6 883c
000003a0: 0840 ad3d f81a 33bc f06c 7c3c 217b 803c
000003b0: 6acf 613e 339c 50be c252 583c 3795 cdbc
000003c0: cdf4 9ebd bcfc 84be bb47 7abd 4eb3 3f3d
000003d0: a724 cabd 9542 35bd 1171 1abe c665 82bd
000003e0: c99a 2abd 93e1 16bd 8439 8e3e d784 eabc
000003f0: 45e1 2fbd 308e 99bc cf71 a6bd cc40 d1bc

dense_1/kernel/transpose f4 [256, 224]
-0.110778615 0.064784706 0.023558665 -0.057720948 -0.047178492 0.013506781 0.006561242 -0.117373675
-0.018954897 -0.0954199 0.081809714 -0.011229356 0.015019421 -0.032544054 -0.07086206 -0.06263434
-0.05923295 -0.21593127 0.04268474 0.039918005 0.048715282 -0.01783793 -0.20712905 0.025227904
-0.07757865 -0.082012616 -0.025866201 0.09112388 0.06867577 -0.097128995 -0.19701853 -0.05418734
0.011460513 -0.07767711 0.09383341 0.03689115 0.076652706 0.04533648 -0.018651903 -0.0319351
0.050530404 0.08998266 0.06386672 0.068306975 0.09804701 -0.07918772 0.024315007 -0.025520459
-0.04845217 -0.076289944 0.0029124073 0.03175505 -0.084960744 0.064212464 0.026038498 -0.035821483
-0.030174412 -0.09578618 -0.019463789 -0.0655991 -0.031650014 0.09715144 0.104993165 0.024056748
0.06914147 0.0022634985 0.06869323 0.03092252 -0.08590013 -0.093536854 -0.04491692 0.025543984
-0.070380546 -0.10465085 0.020121232 0.09537269 0.15173674 -0.0135524105 -0.0040531945 0.08703919
-0.12072596 -0.023642216 -0.02569503 -0.108578816 0.03558559 -0.025882209 -0.11269413 -0.08628394
0.059262984 0.06101267 0.11725788 0.01609002 -0.116101794 -0.12781738 -0.07185091 0.04870868
-0.019365517 -0.07326289 -0.002966176 0.06962933 -0.08304175 -0.027222786 -0.029070884 -0.11222096
0.03617734 -0.110296294 0.091507986 0.061077747 0.054144725 -0.10361819 0.046319705 0.06346905
-0.07007897 -0.21645579 0.07029345 -0.09549624 0.021786494 0.059094634 -0.16317642 0.04564286
-0.027320728 0.050251454 -0.12182686 -0.07563634 -0.027034473 -0.08371229 -0.1572407 -0.013884003
-0.084454656 -0.05563722 0.02227412 0.026118059 0.040330082 0.0017248311 -0.03673891 0.083740875
0.06352243 0.067959815 0.08593835 -0.06595423 -0.07209882 0.048806965 -0.13448827 0.10912064
-0.054376204 -0.046448708 -0.044583734 0.046519026 0.09162022 0.071967945 0.046709374 -0.035825502
-0.052574027 0.017906219 -0.012579131 0.0769185 -0.04784377 -0.09665004 -0.06610231 0.047988277
0.044979367 0.06527425 0.010834698 -0.097918876 0.10519199 -0.028516117 -0.058614053 -0.10373348
0.06588285 -0.038781956 -0.06686363 -0.042825967 0.05618238 0.057700202 -0.021403478 -0.026324004
0.03699421 -0.18891816 -0.08870134 -0.08350031 -0.02285745 -0.002263668 -0.04161189 -0.068740904
-0.08140937 -0.07424215 0.0773301 -0.084345765 0.047625534 -0.11487932 -0.038145 0.080582075
0.075364396 0.043805484 -0.05087669 0.012163267 -0.025559299 -0.09002574 -0.08793737 -0.019062864
0.031916443 0.043561727 0.020948797 0.046407603 0.051735274 -0.07123195 -0.028985528 -0.09616059
0.06600938 0.01965314 -0.10216787 -0.0034991277 -0.06125467 -0.08608271 0.09292271 -0.014651113
-0.016578201 -0.04169938 -0.0036370014 -0.061274085 -0.023056893 0.17414778 0.15434283 -0.08832856
0.10832036 -0.88340497 0.10953603 0.4582163 -0.03470456 -0.06568581 -0.063483946 0.068427145
-0.098891586 0.06255016 0.002239909 0.046313092 0.31250334 -0.04111434 0.2461847 0.08885145
-0.3697475 -0.32444382 0.17361712 0.044399403 -0.073861554 0.32766312 -0.35792336 0.30309534
0.85594857 -0.0653979 0.11958527 0.0077482546 0.22900118 -0.4820629 -0.4078563 0.124616496
00000000: e6df e2bd d8ad 843d 1afe c03c cd6c 6cbd
00000010: 3c3e 41bd 8c4b 5d3c b0ff d63b 9c61 f0bd
00000020: 4d47 9bbc 826b c3bd da8b a73d 55fb 37bc
00000030: 0414 763c ea4c 05bd 2120 91bd 6f46 80bd
00000040: 409e 72bd 161d 5dbe 32d6 2e3d 1081 233d
00000050: ad89 473d da20 92bc a319 54be c0aa ce3c
00000060: 8ee1 9ebd 3bf6 a7bd 5be5 d3bc 289f ba3d
00000070: e2a5 8c3d 91eb c6bd 3abf 49be 8bf3 5dbd
00000080: e0c4 3b3c 2d15 9fbd bb2b c03d 2d1b 173d
00000090: 18fc 9c3d bfb2 393d e0cb 98bc 61ce 02bd
000000a0: f8f8 4e3d d448 b83d 8ecc 823d 87e4 8b3d
000000b0: dfcc c83d 2c2d a2bd 4430 c73c 4810 d1bc
000000c0: c875 46bd e73d 9cbd 16de 3e3b 9511 023d
000000d0: e6ff adbd d381 833d b04e d53c 8cb9 12bd
000000e0: 5430 f7bc 8b2b c4bd 8672 9fbc d258 86bd
000000f0: 72a3 01bd 56f7 c63d a806 d73d a812 c53c
00000100: 0b9a 8d3d 3457 143b 09af 8c3d 3a51 fd3c
00000110: 68ec afbd 4090 bfbd cefa 37bd 9e41 d13c
00000120: ad23 90bd 2f53 d6bd 48d5 a43c c252 c33d
00000130: e060 1b3e ee0a 5ebc a9d0 84bb 9a41 b23d
00000140: 2c3f f7bd 52ad c1bc 627e d2bc 925e debd
00000150: 32c2 113d ed06 d4bc 2ecc e6bd a2b5 b0bd
00000160: bebd 723d 6ce8 793d e624 f03d 38cf 833c
00000170: c7c6 edbd 8fe2 02be 9226 93bd c182 473d
00000180: 6fa4 9ebc db0a 96bd 2d64 42bb d299 8e3d
00000190: cb11 aabd 5202 dfbc 1026 eebc 1ad4 e5bd
000001a0: b12e 143d 06e3 e1bd 8a68 bb3d a92c 7a3d
000001b0: dcc6 5d3d c635 d4bd bbb9 3d3d 10fc 813d
000001c0: 9085 8fbd 96a6 5dbe 03f6 8f3d 8893 c3bd
000001d0: 9779 b23c 370d 723d b817 27be 02f4 3a3d
000001e0: b8cf dfbc 78d4 4d3d 5c80 f9bd 3ae7 9abd
000001f0: 6677 ddbc 5971 abbd b503 21be bb79 63bc
00000200: 90f6 acbd dbe3 63bd 3778 b63c 8af5 d53c
00000210: 2831 253d ba13 e23a 8a7b 16bd 5680 ab3d
00000220: 0c18 823d 842e 8b3d 7200 b03d 0313 87bd
00000230: 8ca8 93bd d0e9 473d 4bb7 09be a47a df3d
00000240: 95b9 5ebd 0041 3ebd 6f9d 36bd bc8a 3e3d
00000250: 62a3 bb3d ee63 933d 5452 3f3d c3bd 12bd
00000260: dd57 57bd 10b0 923c b318 4ebc 7287 9d3d
00000270: d4f7 43bd 75f0 c5bd a660 87bd 5b8f 443d
00000280: 493c 383d 82ae 853d 0484 313c b189 c8bd
00000290: e66e d73d a29a e9bc 4a15 70bd 3872 d4bd
000002a0: 96ed 863d d4d9 1ebd cdef 88bd 486a 2fbd
000002b0: 7f1f 663d 0c57 6c3d 5956 afbc 70a5 d7bc
000002c0: 3e87 173d c373 41be 0ca9 b5bd 3602 abbd
000002d0: 8c3f bbbc 0c5a 14bb 3b71 2abd 08c8 8cbd
000002e0: f5b9 a6bd 450c 98bd 3e5f 9e3d 79bd acbd
000002f0: fe12 433d d945 ebbd ee3d 1cbd 3708 a53d
00000300: a658 9a3d 616d 333d 1364 50bd 7048 473c
00000310: bc61 d1bc 6a5f b8bd 8218 b4bd b929 9cbc
00000320: d1ba 023d c86d 323d d09c ab3c e615 3e3d
00000330: 5ee8 533d 0ee2 91bd 0f73 edbc d8ef c4bd
00000340: ed2f 873d 9fff a03c 633d d1bd 9f51 65bb
00000350: 2de6 7abd 224c b0bd 434e be3d 390b 70bc
00000360: 02cf 87bc f8cc 2abd c25a 6ebb 89fa 7abd
00000370: cfe1 bcbc cc53 323e 0c0c 1e3e 9be5 b4bd
00000380: 11d7 dd3d d426 62bf 6d54 e03d 549b ea3e
00000390: 5e26 0ebd 4886 86bd df03 82bd 8823 8c3d
000003a0: ac87 cabd 4c1a 803d 70cb 123b ccb2 3d3d
000003b0: 7000 a03e 8367 28bd d817 7c3e c0f7 b53d
000003c0: 8b4f bdbe 801d a6be b0c8 313e 26dc 353d
000003d0: ba44 97bd 76c3 a73e bb41 b7be 502f 9b3e
000003e0: 721f 5b3f 56ef 85bd 1fe9 f43d 12e5 fd3b
000003f0: 497f 6a3e f3d0 f6be 8ad2 d0be ef36 ff3d

dense_2/MatMul_bias f4 [2]
-0.027256541 0.027256388
00000000: 1c49 dfbc ca48 df3c

dense_2/kernel/transpose f4 [2, 256]
-0.14179462 0.26219437 -0.052555453 -0.07436064 0.0034127212 -0.08458793 -0.23406012 0.7070826
0.032956894 -0.06806442 -0.047293536 -0.17586918 -0.20874189 -0.13168797 -0.38484174 0.11032131
0.4216823 -1.0476215 0.39547002 0.86729926 1.509688 0.042683456 0.055434894 1.7267009
0.01086268 0.038601253 -0.20767742 0.15121327 -0.08202267 -0.10014795 -1.5389714 0.13366592
-0.13494065 -0.2128298 0.08572646 0.61732775 0.09814872 -0.08275473 -0.104606345 -1.1695738
0.0010478351 0.049136516 0.032371517 -0.18809134 0.66521764 -0.01668618 0.08345913 0.5552824
1.0522759 -0.043838285 0.0672907 0.06802423 0.018193847 0.10554785 -0.45966232 -0.0319753
0.024182413 -0.20775807 0.10603378 -0.050470322 0.08707049 -0.004185551 0.050203767 0.7450671
-0.06070712 0.13526861 -0.49634916 -0.14820933 0.014755573 -0.3665156 0.05601693 -0.12787873
-0.19965738 0.21280515 0.04249441 -0.4982336 -0.8274644 -0.038718455 0.124148935 -0.1412799
-0.01975784 0.52629197 -0.22849503 0.11260798 0.9958748 0.118306555 0.036033593 -0.0315293
-0.11555213 -1.4484733 -0.038091574 -0.49772447 0.04015961 -0.012518586 -0.008356009 0.01858614
0.34008864 0.036194023 0.018426176 -0.9345081 -0.3167497 -0.0907984 0.055517398 1.212863
0.73908174 -0.09693007 -0.062284183 -0.054338712 -0.033331137 -0.106014766 -0.011286024 0.0865382
0.048308585 0.04279683 0.14080608 -0.04036306 0.27222103 -0.10674945 1.383674 0.0088925185
0.5775196 0.91406155 0.033239428 0.10774592 0.10171576 -0.095688425 1.223381 0.57557106
1.1087894 0.15006539 -0.004084214 0.034725126 -0.21011528 -0.83971334 -0.051091183 -0.051998906
0.010031201 -0.5694411 -0.98582476 0.13861579 0.13391744 0.0052532144 0.10195152 0.064793155
-0.060372118 -0.06413991 0.10294618 0.07995626 0.15020363 0.46452126 -0.12518464 -0.015049873
-0.08417908 0.09144049 -0.42860648 -0.26471487 -0.02836463 0.72675407 0.06476518 -0.025192473
-0.11409702 -0.032000273 -0.0065266304 -1.8708817 0.10713775 0.020082813 -0.04984906 -0.06331069
0.01788682 -0.028619075 -0.076334044 -0.024048813 0.15410747 0.03513136 -0.016798902 -0.27694407
-0.1046608 0.025460185 0.02846107 -0.015709218 0.12034552 0.119657636 0.100348696 0.07717506
-0.07356231 -0.11526489 0.07353478 0.013667484 -0.014728991 -0.045823175 0.07269604 -0.06359526
-0.0263969 -0.43167403 -0.048506413 0.7013703 -0.017200623 0.0082506845 0.02661597 -0.031219784
-0.05672698 -0.059051335 -0.0478227 0.07305271 0.0008548127 -0.034586232 0.07186219 0.083347306
0.30713376 -0.11360019 -0.025181724 0.065630235 0.046099853 0.07587358 0.054184232 -0.15450576
0.051655557 0.0035690004 -0.30062062 -0.040769897 1.6147734 -0.13445735 -0.47099507 -1.8869661
-0.038422734 -0.08967373 0.0028403762 0.014836461 0.0973809 0.0031844645 -0.107996605 -0.52290505
-0.30252925 -0.025823027 0.007899982 -0.20802142 -0.95434797 0.3260025 -0.7958163 0.038307607
-0.73079646 -0.87303823 -0.13767552 -1.4617261 0.03925444 0.07589589 -0.17670932 -0.04313653
-0.117657624 -0.004592329 0.67645 -0.037398778 0.025465576 -0.09738598 -0.09681873 -0.08448086
00000000: 9c32 11be 573e 863e 6344 57bd 644a 98bd
00000010: f6a7 5f3b 703c adbd 75ad 6fbe 5e03 353f
00000020: cffd 063d 5c65 8bbd deb6 41bd 0d17 34be
00000030: 6fc0 55be 36d9 06be fa09 c5be 24f0 e13d
00000040: bee6 d73e 7618 86bf 0c7b ca3e 5307 5e3f
00000050: 753d c13f d9d4 2e3d b30f 633d 8904 dd3f
00000060: 62f9 313c 591c 1e3d 64a9 54be a7d7 1a3e
00000070: 80fb a7bd 5e1a cdbd 04fd c4bf b8df 083e
00000080: e22d 0abe 0ef0 59be 5b91 af3d 3109 1e3f
00000090: 3202 c93d 507b a9bd da3b d6bd 98b4 95bf
000000a0: 8357 893a 5f43 493d ff97 043d 049b 40be
000000b0: b44b 2a3f 75b1 88bc 9fec aa3d fd26 0e3f
000000c0: fab0 863f c68f 33bd b5cf 893d 4a50 8b3d
000000d0: 430b 953c 7929 d83d dc58 ebbe 88f8 02bd
000000e0: 321a c63c 88be 54be 3d28 d93d f8b9 4ebd
000000f0: 0352 b23d f226 89bb 77a2 4d3d b8bc 3e3f
00000100: 07a8 78bd db83 0a3e 7a21 febe 30c4 17be
00000110: 5cc1 713c efa7 bbbe 0272 653d a4f2 02be
00000120: fc72 4cbe 98e9 593e 9e0e 2e3d 7918 ffbe
00000130: b5d4 53bf 3e97 1ebd cc41 fe3d aeab 10be
00000140: 32db a1bc 12bb 063f 9afa 69be 039f e63d
00000150: a7f1 7e3f b54a f23d f697 133d de24 01bd
00000160: 98a6 ecbd 9367 b9bf e905 1cbd bed5 febe
00000170: 677e 243d c11a 4dbc a4e7 08bc f641 983c
00000180: 1920 ae3e 2f40 143d 7ef2 963c ec3b 6fbf
00000190: 042d a2be 83f4 b9bd 3666 633d 183f 9b3f
000001a0: 7634 3d3f 4683 c6bd b31d 7fbd 4592 5ebd
000001b0: 3b86 08bd 451e d9bd 04e9 38bc f13a b13d
000001c0: 39df 453d bb4b 2f3d 782f 103e bc53 25bd
000001d0: 8e60 8b3e 759f dabd 3b1c b13f edb1 113c
000001e0: 53d8 133f f0ff 693f 1126 083d e5a9 dc3d
000001f0: 5a50 d03d 4bf8 c3bd c097 9c3f a058 133f
00000200: d0ec 8d3f beaa 193e dfd4 85bb ef3b 0e3d
00000210: 7628 57be 74f7 56bf fd44 51bd cefc 54bd
00000220: e859 243c e4c6 11bf 035f 7cbf 4cf1 0d3e
00000230: a721 093e 2823 ac3b f5cb d03d 46b2 843d
00000240: c148 77bd c95b 83bd 72d5 d23d 1cc0 a33d
00000250: fbce 193e bbd5 ed3e 6730 00be be93 76bc
00000260: 1566 acbd 2745 bb3d 4f72 dbbe b588 87be
00000270: f15c e8bc 8e0c 3a3f 9ba3 843d 7260 cebc
00000280: b3ab e9bd b812 03bd 58dd d5bb 0d79 efbf
00000290: 096b db3d b684 a43c 872e 4cbd 09a9 81bd
000002a0: 6187 923c 8d72 eabc 0655 9cbd 0402 c5bc
000002b0: 59ce 1d3e e7e5 0f3d da9d 89bc 9dcb 8dbe
000002c0: 6758 d6bd e191 d03c 3127 e93c 9eb0 80bc
000002d0: b677 f63d 100f f53d 9e83 cd3d f50d 9e3d
000002e0: d6a7 96bd 0010 ecbd 6799 963d 95ed 5f3c
000002f0: de51 71bc 15b1 3bbd a9e1 943d 3b3e 82bd
00000300: 503e d8bc 6104 ddbe a9ae 46bd 018d 333f
00000310: 52e8 8cbc e12d 073c bc09 da3c a2c0 ffbc
00000320: 8d5a 68bd d0df 71bd bce1 43bd a99c 953d
00000330: 8215 603a 4baa 0dbd 7c2c 933d feb1 aa3d
00000340: a340 9d3e 37a7 e8bd e749 cebc 2569 863d
00000350: 33d3 3c3d 9c63 9b3d 49f0 5d3d c236 1ebe
00000360: c794 533d e4e5 693b f2ea 99be 56fe 26bd
00000370: e5b0 ce3f 30af 09be 4426 f1be 1b88 f1bf
00000380: 2861 1dbd dca6 b7bd 9b25 3a3b a114 733c
00000390: a36f c73d 73b2 503b 532d ddbd 1bdd 05bf
000003a0: 1de5 9abe d08a d3bc ed6e 013c 9103 55be
000003b0: 2650 74bf cde9 a63e 9eba 4bbf 70e8 1c3d
000003c0: 7a15 3bbf 6f7f 5fbf d0fa 0cbe d719 bbbf
000003d0: 44c9 203d 4e6f 9b3d 4af3 34be eeaf 30bd
000003e0: 7bf6 f0bd 3f7b 96bb d42b 2d3f 762f 19bd
000003f0: 2f9d d03c 4d72 c7bd e648 c6bd 4d04 adbd
